src/project_agent.pt (torch, 22212 bytes, 6 tensors)

net.0.weight f4 [64, 6]
00000000: 3d3e e43b 818e 213e 8714 ed3f ef0a 8941
00000010: 7ddb 49bc d700 b541 d459 993d b2a4 19be
00000020: a135 1e3f 7417 7c41 2d6c dbbd cc22 af41
00000030: 1075 3cbe 80ac 35be 1eca 33bc 3287 b13d
00000040: 7cce 96be f2f2 853e ef53 123e 8c17 8bbf
00000050: db34 1040 2eaf 6941 465f bcbd ecce ab41
00000060: 2318 043d f2a6 93be e3b6 803f 9c7d 8041
00000070: 811c 793d a747 b141 5413 983b 0d95 013e
00000080: b77a 7140 8fc1 8541 e16e e0bc da01 b841
00000090: e9ec 053e d22f d0be 434c cabf 16b2 7841
000000a0: 1c04 1c3d b74a af41 5cb0 503c 2b71 e0bd
000000b0: f62e 0740 ff15 7241 5bfb b93c 342c aa41
000000c0: 3bb1 c03d 72cd 93bf 8a21 5140 b8e2 6741
000000d0: 47e8 183d 588e a641 30da bd3c bab0 debf
000000e0: 6973 7440 08f9 6141 6fdb 953e 2321 ab41
000000f0: 564b 43be bfde 06be 3786 3a3e 34b8 473d
00000100: 4d7d 4b3c e1c1 9bbe 4218 2bbc e410 bebf
00000110: 566d 5640 264b 7d41 af86 9a3e c63e af41
00000120: 09c5 bf3d 6526 5b3f 0925 2c3e 4ca5 6e41
00000130: 7d9d 9fbe 024a ab41 169f 8dbe e95f 813e
00000140: 2a06 83be 4657 21be 26b9 a2bc fa62 e43c
00000150: 7cc0 e93d 0c92 ccbe 27d5 3140 43e7 6641
00000160: e370 0cbe 108d a541 4d8e 0b3c 2165 bd3d
00000170: 69e2 c83f 3295 7e41 3fa7 673b ce9c b341
00000180: 5226 cdbe ebb4 44be 4ed6 52bc c515 03be
00000190: 3e6b 56be 32d5 323e dd37 edbe 69e6 02bf
000001a0: 3cf4 963f 6d0a 113f c5c2 8b3e 7ecf be40
000001b0: a3da 96be e500 43be b19e 973e 10be 13bd
000001c0: 86c1 babe 25c6 803e 7aa2 02bd 0b4c 96be
000001d0: 4bf8 11be e438 7a3e 08c1 89be fb78 a0bd
000001e0: bba5 32bf fa23 de3e e680 12c0 88d1 de3b
000001f0: 8b4b 4d3e 585a ba40 7726 94be 9479 823e
00000200: 4cd7 32bd e8ce 873e b19e fcbc 222d 463f
00000210: aca5 e3ba 6275 243d 6d3b c740 88cd 8341
00000220: d471 263e 02f9 ae41 c9a7 5c3d e908 86c0
00000230: 21a0 0d41 6064 e7c0 f3ec 9dc0 eeb8 1c41
00000240: 81a1 8ebe 99f9 15bf 9452 9040 d19c 973f
00000250: 9ef8 cf3e 40c7 4240 8803 01be 00e4 79be
00000260: e208 1fbe 76c2 963e 7fee 913c c01e 85be
00000270: 4839 89be 445a e8be 251c fe3d e0ce cd3e
00000280: 567a e73d 60ac 6a3f efe9 823d 7022 27bf
00000290: d08f 8340 7769 6141 f5ef 72bc aaeb a541
000002a0: 1d82 aabe a86f 2d3c 6122 bc3c 301c 743e
000002b0: 3447 55be a2a1 8bbd 414b 3fbe 1561 583f
000002c0: 91d6 0f41 3714 3440 9ecd 1f3e cf96 953f
000002d0: 419a f7be d24d b9bd b818 853e 1985 64be
000002e0: ba8a 5e3d 5868 7f3d 20a6 82bd c73f 16be
000002f0: 61f5 013e bf03 c8be 12bf 0abe 3b53 45be
00000300: 48b1 d3be efef 453d f7cf 4fc0 ab8d d9bf
00000310: c41a d43e adf6 6cc0 70a7 a2be 5aac 81be
00000320: 3ae4 8cbe eaa9 b4bd 2fd3 9f3d cb08 fb3c
00000330: 82ad 98be c9e2 96be 5e3b f5c1 e567 37c1
00000340: e828 543f a22f 45c1 f41f 26be 56b6 9cbe
00000350: a095 d139 71fc 353e 7606 b5bd 6b1b 083e
00000360: 3291 103e 9c9c e5bf 5f11 9d40 c296 0141
00000370: a252 a8bd d66c 9241 2cd9 113e f919 a5bf
00000380: 22ef 0640 86c7 5841 f8fd 49bd 74bf a641
00000390: 33a7 8a3c 2928 483e ed81 a1bf 1425 8641
000003a0: 92d7 db3d f4e8 b341 faff 54be 5d35 cebd
000003b0: 8d84 4a3e c70f 1d3e 9520 9bbe 81e8 873e
000003c0: 87de 183d e15a e6c0 c773 d940 840e 32c1
000003d0: 26c0 fbc0 ef9f 4441 66b5 fd3d 55fd b9bf
000003e0: 3e7a a640 d388 0d41 bb11 183d 760f 9d41
000003f0: b36c ef3e 3b45 f03e ab14 2fc1 b4f6 2941
0.006965427 0.15777017 1.852189 17.130339 -0.0123203965 22.62541 0.074878365 -0.15004233
0.6180058 15.755726 -0.10713992 21.89199 -0.18404031 -0.17741585 -0.010973481 0.086683646
-0.2945441 0.26161915 0.1428983 -1.0866561 2.253226 14.6052685 -0.091978595 21.476036
0.03224958 -0.28838307 1.0055813 16.061333 0.0608182 22.159986 0.004640976 0.12654515
3.773115 16.719511 -0.027396621 23.000904 0.13078655 -0.40661484 -1.5804523 15.543478
0.038089857 21.911482 0.01273736 -0.10959085 2.1122413 15.13037 0.022702863 21.271584
0.09408804 -1.1547072 3.267672 14.492851 0.037330892 20.819504 0.023175329 -1.7397683
3.819544 14.123299 0.29268977 21.39118 -0.19071707 -0.13170908 0.18215261 0.048759654
0.012420011 -0.30421355 -0.010442795 -1.4848905 3.3504233 15.830847 0.3018088 21.905651
0.09363753 0.8560546 0.16811003 14.915356 -0.31174842 21.411137 -0.27660435 0.25268486
-0.2559064 -0.15755948 -0.019863676 0.027879227 0.114136666 -0.39955175 2.7786348 14.43146
-0.13714938 20.693878 0.008517814 0.092478044 1.5694095 15.911425 0.003534749 22.451565
-0.400683 -0.1920964 -0.012868477 -0.12801273 -0.20939347 0.1746414 -0.46331683 -0.5113283
1.1793284 0.56656533 0.27297035 5.9628286 -0.29463682 -0.1904331 0.2961326 -0.03606993
-0.36475772 0.25151172 -0.03189323 -0.2935489 -0.14254873 0.24435765 -0.26905084 -0.07835575
-0.69784135 0.43386823 -2.2891173 0.0067998804 0.20048349 5.8235283 -0.28935596 0.25483382
-0.043662354 0.26525044 -0.030837389 0.7741262 -0.00173681 0.040151007 6.226004 16.475357
0.1625436 21.871586 0.05387095 -4.1885877 8.851594 -7.231003 -4.9351745 9.795149
-0.27857593 -0.5858398 4.5100803 1.1844732 0.40619367 3.0434113 -0.12599003 -0.24403381
-0.15530732 0.29445237 0.01781392 -0.26000023 -0.26801515 -0.45381367 0.12407712 0.40196896
0.113026306 0.91669273 0.063922755 -0.6528692 4.111305 14.088248 -0.014827718 20.74007
-0.33302394 0.010585703 0.022965612 0.23838878 -0.20827943 -0.068179384 -0.18681051 0.84523135
8.989884 2.8137338 0.1560578 1.1686648 -0.48359874 -0.09048046 0.2599542 -0.22316398
0.05433152 0.06235537 -0.06379342 -0.14672767 0.12691261 -0.39065358 -0.1354945 -0.19270031
-0.41346192 0.04832452 -3.2470682 -1.6996359 0.4142667 -3.702556 -0.3176837 -0.25326806
-0.27517873 -0.08821471 0.07803952 0.030643841 -0.29819876 -0.29469898 -30.653988 -11.462865
0.8287492 -12.324129 -0.16223127 -0.3060786 0.00039975066 0.1777208 -0.08839123 0.13291709
0.14117888 -1.7938418 4.9083705 8.099306 -0.08218886 18.303143 0.14243001 -1.2898551
2.1083455 13.548712 -0.04931447 20.843483 0.01692543 0.1954657 -1.2617775 16.768105
0.10734476 22.488747 -0.20800772 -0.10068772 0.19777127 0.1533805 -0.30298296 0.26544574
0.037321594 -7.1985936 6.795383 -11.128544 -7.8672056 12.289046 0.12388115 -1.4530436
5.202422 8.845904 0.037126284 19.63255 0.46762618 0.4692782 -10.942546 10.62273

net.0.bias f4 [64]
00000000: 7e82 1142 1d26 0c42 a499 65be 5bd9 0c42
00000010: 7ff8 0d42 bfcd 1742 e0ed 0542 6d92 0f42
00000020: e4cb 0e42 0736 1342 9fb0 b5be 1d2f 1042
00000030: 991a 0942 c6d9 ccbe 2e79 0e42 77a9 1242
00000040: d292 bc3e f75c 763f 02cf 723e 4b35 ce3e
00000050: 81ed 56be 6588 8b3d 19c4 1342 1ef1 d141
00000060: 6147 8c3f cd76 8bbe bb82 ab3e af01 1142
00000070: 2ec9 11be 3843 b040 b5f3 993e d900 a53e
00000080: 4379 d0bf d998 e83d 98c0 93c1 bb17 9dbe
00000090: 51f3 0742 d6f8 0942 3256 0e42 1d6d aabd
000000a0: ee07 c341 2690 0a42 7530 5c40 3e06 0442
000000b0: c3ab 1142 ce09 1ebe 6125 f441 6594 8dbf
000000c0: 2eab 2841 16ff 9241 8278 a83e fc67 25be
000000d0: 9b46 44bf fd38 fb41 c3ef 1242 7ffa 29be
000000e0: ee79 b341 26ad db41 955d 0f42 3242 b4bd
000000f0: 0394 99bd c658 9bbe 5c82 e43d 9d39 1142
36.377434 35.03722 -0.2242189 35.21226 35.492672 37.950924 33.4823 35.892994
35.699112 36.80276 -0.35486314 36.04601 34.275974 -0.40009898 35.61834 36.665493
0.36830765 0.96235603 0.2371178 0.40275034 -0.20989038 0.068131246 36.9415 26.242733
1.0959283 -0.27239075 0.33498177 36.251644 -0.142369 5.5082054 0.30068746 0.3222721
-1.6287006 0.113572784 -18.46904 -0.30682167 33.987614 34.493004 35.584175 -0.08321593
24.378872 34.64077 3.4404576 33.006096 36.417736 -0.15433428 30.518251 -1.1060911
10.541792 18.374554 0.3290444 -0.16152948 -0.76670235 31.402826 36.734142 -0.16599463
22.434536 27.459545 35.84139 -0.08801688 -0.07498934 -0.30341166 0.111576766 36.306263

net.2.weight f4 [64, 64]
00000000: f5e4 4340 ea85 1c3f 708a f93d 407f a03e
00000010: ec0e 703f 044c 0241 8956 4c3e e534 d83f
00000020: d46a 133f ecf0 5b40 188b f5bc 2143 c040
00000030: a478 153f a0d2 49bd 6a54 f43e e58d 4940
00000040: e83b 9fbd 78c4 8f3d 8078 263b f07c 35bd
00000050: db51 dc3e de9f abbd 4765 1440 bba4 1c3f
00000060: c795 c4bd 0cb5 c83d 793f 243e 54c7 0b3f
00000070: aafc f23d 21e3 b4bd d2d9 d43d e00f cebd
00000080: 7303 1cbe 359f 53bd 47e7 39bf f0a5 10bc
00000090: 0a50 9a3e d359 963e 6b01 cd3f 6cf2 343d
000000a0: 65e8 1b40 c77d 9a3e e996 ec3a 9a62 243e
000000b0: e00c 2c40 1442 8abd b781 143f ae1e a1bd
000000c0: c9eb e23e 2290 243e 698f 9b3e 7cb9 30bd
000000d0: a075 553d 1c35 a93e a2ef 3a3f 4a60 8ebd
000000e0: 3356 e33d 4d10 a13f e9e0 383f d08f 283d
000000f0: f1cb 26be 0924 afbd 5c1a 003d 0777 3040
00000100: 1f49 34bd 1d6e 5ebc 22d3 a5bd f262 bdbd
00000110: 45f5 47bd 13c0 a2bd f4c9 973d 8443 09bd
00000120: 88fa 543d 3a89 9a3d 701a 493d a0e4 59bd
00000130: 8080 8b3b 94e0 a6bd 6002 14bc 8f2a 1ebd
00000140: 6c26 6abd 4fc1 d0bc 9484 e53d 505d ecbd
00000150: c006 c63d 3749 ca3d bc11 e7bd b421 063d
00000160: 578d a03d 768a c43d a5ca 233d 7a59 f43d
00000170: bcf1 babd 31f3 ae3d 0f28 d03d 6441 bf3d
00000180: cbc8 acbd 46cc a0bd 65a8 20bd a079 5a3d
00000190: a2ae bebd 1263 e1bd e7b6 25bd 0699 a83d
000001a0: b05d 09bd 6adf b4bd 854d 09be b0cd e7bd
000001b0: e997 eabd 5b2f 903b 4a8f eebd 2750 1ebd
000001c0: 5182 48bc 49e3 a6bd 578e 3dbd 1424 c7bd
000001d0: a6cb 87bc d760 7fbd 6015 803b 38d8 c13d
000001e0: d93c bcbc 7658 fd3d b4f5 973d 12ab d0bd
000001f0: b127 d8bd 6b07 58bd 7004 023d 346e c2bd
00000200: 4478 1c3d 061d cfbd 06da d13d ea5e e13d
00000210: 5ca6 0fbd 820e a6bd 2a3e f0bd 7c32 3b3d
00000220: 948b b63d c40c c53d d658 a8bd 6ef3 cbbd
00000230: c0c6 a0bd 9092 243d 3842 ef3d 30a5 b6bd
00000240: 0030 da3d 1821 17bd 58f5 debc 1081 613c
00000250: a0ea 183c a813 e73d a2fe ac3d 30b1 0bbc
00000260: 18c6 cbbd 2457 473d 3899 bc3c 968a ab3d
00000270: 0e8b 8fbd e050 6d3d f09b 883d 18aa 963c
00000280: e007 7fbc 68b4 d03d d8eb a6bd 3a8a c8bd
00000290: d67d c5bd b2a7 9ebd c01a 8a3d 408d 7abd
000002a0: 88c4 513d a89e fcbd 40ff 1cbd 94ed d2bd
000002b0: d0c4 f23c c812 323d 889a 353d 40ec d33c
000002c0: 564c 84bd 20b8 53bd 3890 c8bd 1afd b83d
000002d0: 50ea a13d c0ac ec3c 9049 8ebc 0e45 c9bd
000002e0: d8ab 75bd cc9b 63bd 1444 cf3d e05d 2fbc
000002f0: ea3c b43d 8cfc 30bd 6855 2dbd 60fc 5ebc
00000300: 8d63 2b40 fa7a 7f3e 4c8a fc3d 89f1 693e
00000310: 90fe 2e3f 2535 ea40 ae2c 3e3e 81e9 b13f
00000320: c0dc cf3e 312c 7040 084b 873d 4f19 b940
00000330: 4d64 613e c012 913c 55d6 ce3e 9cf9 1f40
00000340: 366d b1bd 8dd7 923e 9057 efbd c0d9 203b
00000350: 4c3a 953f 9264 603c e976 0540 12be b33f
00000360: f126 963e c898 8abc 64d7 4c3e 4b18 143f
00000370: c2d7 a53d 7d3c a93e 6684 b9bd f87f ae3c
00000380: a1d7 13be d1fe 023e 1f41 46bf 9081 293c
00000390: 1092 163f 5c1c 743e 4d35 6c3f 803e cc3d
000003a0: 41e8 8340 84dc 133f 7518 52bd 2704 b33e
000003b0: f2d3 0840 70ee 3c3e c313 983f 8ea1 953d
000003c0: 7855 2f3f 2c31 543c c095 303f a4f2 183d
000003d0: 36ad 13bc 740c 9b3d e8a0 3e3f 6e17 973d
000003e0: badc 87bb f999 0940 1e73 f43e 2098 14bd
000003f0: 0627 d9be 14f6 83bd 60b2 113d c200 0e40
3.0608494 0.61141837 0.12184608 0.31347084 0.9377277 8.1435585 0.19954886 1.6891142
0.5758488 3.4365797 -0.029973552 6.0081944 0.5838721 -0.049273133 0.47720653 3.1492856
-0.07775098 0.07019895 0.0025401413 -0.044308603 0.430312 -0.083801016 2.3186815 0.6118886
-0.0959888 0.09800157 0.16039838 0.54601026 0.11864598 -0.08832384 0.103931084 -0.10061622
-0.15235691 -0.051665504 -0.72618526 -0.008828625 0.3013919 0.29365405 1.6016058 0.044176504
2.4360592 0.30174085 0.0018050346 0.16053239 2.6882858 -0.06750885 0.5801043 -0.0786718
0.44320515 0.16070607 0.3038285 -0.04314564 0.05211413 0.33048332 0.730219 -0.069519594
0.111004256 1.25831 0.72218186 0.041152775 -0.16288735 -0.08551795 0.03127514 2.7572649
-0.044015046 -0.013576058 -0.08096911 -0.09247388 -0.04881789 -0.079467915 0.074115664 -0.033511654
0.051996738 0.07545705 0.04909748 -0.05319655 0.0042572618 -0.08148304 -0.009033769 -0.038614806
-0.05716555 -0.025482802 0.11206928 -0.115412354 0.09669256 0.09877246 -0.112826794 0.032746986
0.078394584 0.09596722 0.03998818 0.11931129 -0.091281384 0.08542479 0.101638906 0.09338644
-0.08436736 -0.07851462 -0.039223094 0.053338647 -0.09310652 -0.11005224 -0.040457632 0.08232312
-0.033536613 -0.08831675 -0.13408478 -0.11318529 -0.11454756 0.0044001765 -0.11648424 -0.038650658
-0.012238101 -0.0814882 -0.046278324 -0.09723678 -0.0165766 -0.062348213 0.003908798 0.094650686
-0.022978233 0.12370388 0.07419911 -0.10188879 -0.105544455 -0.05274145 0.031742513 -0.09493676
0.03820063 -0.10112958 0.10246663 0.110044315 -0.035070762 -0.08108236 -0.11730607 0.045702443
0.08913341 0.096215755 -0.08220069 -0.0995854 -0.078504086 0.040178835 0.11682552 -0.08918226
0.106536865 -0.036896795 -0.027216598 0.013763681 0.009333283 0.11283046 0.08447005 -0.0085261315
-0.09949893 0.04866709 0.02302228 0.083760425 -0.070089445 0.057938457 0.06670368 0.018391654
-0.015565842 0.1019066 -0.081504524 -0.097919896 -0.09643142 -0.07746829 0.067433834 -0.061169863
0.051212817 -0.12334949 -0.038329363 -0.10299221 0.029634863 0.043474942 0.044336826 0.025869489
-0.064598724 -0.051689267 -0.097931325 0.0903265 0.0790602 0.028890967 -0.017369062 -0.09827624
-0.059978336 -0.0555685 0.10120407 -0.010703534 0.08800681 -0.043209597 -0.042317778 -0.013609976
2.677951 0.24949256 0.123310655 0.22846045 0.6835718 7.3189874 0.18571731 1.3899385
0.40598106 3.7526972 0.06606108 5.7843394 0.22010918 0.017709136 0.40397897 2.49961
-0.086634085 0.28680077 -0.11686623 0.0024543852 1.1658416 0.013695853 2.0853827 1.404238
0.29326585 -0.016918555 0.2000404 0.5784957 0.08097793 0.3305396 -0.09058456 0.021301255
-0.14437725 0.12792517 -0.77443117 0.0103458315 0.58816624 0.23838943 0.9226883 0.099728584
4.1221013 0.57758355 -0.051292855 0.34964105 2.137936 0.18450332 1.1881031 0.07306205
0.6848979 0.012951177 0.689785 0.037340775 -0.009013465 0.075707346 0.74464273 0.07377516
-0.0041461857 2.1500227 0.47744077 -0.03627789 -0.42412585 -0.0644342 0.035570502 2.2187963

net.2.bias f4 [64]
00000000: 125e 0542 a010 babc e009 d0bb fc9d 0942
00000010: a505 983e 24aa ac3d 6f0c 0a42 1ca9 60bd
00000020: 580a babd 67ac f841 4152 0942 4a1b b7bd
00000030: f0d3 c4bd 0483 e33d af89 0342 c6a0 f83d
00000040: f199 6ac1 dd5e 0742 8c18 c7bd c323 e8bd
00000050: cbf3 cc41 0a16 53bc baa7 0242 58e0 b53c
00000060: 5c72 b2bd 1314 c53d b6db 8dbe 9901 c841
00000070: 029a 9c41 7581 1cbe ae2c 0742 55d8 ec3d
00000080: 65f5 7fbd 646a 2fbe 9d91 0242 bcc5 c8bd
00000090: ba9e 0542 0fef 9341 fa04 0a42 5437 623d
000000a0: e5c7 a63d 3437 7f3d d7e4 0642 8794 03be
000000b0: 40c8 a6bd 1de8 fe41 77ee 393f 390f d23d
000000c0: 3a75 323d 3c00 0442 56cb 0542 cf4e 523d
000000d0: 83ce e941 29b4 b83d d705 ab3c d4bb 6c3d
000000e0: ef2d 8ec1 d468 cc41 7620 e6bd 90fc d3bd
000000f0: 027d dfbe 22a1 2c3e b78f a1c1 4a9c 0842
33.341866 -0.022713006 -0.0063488334 34.40428 0.29691806 0.08430889 34.512142 -0.054848775
-0.09084004 31.08418 34.330326 -0.08940752 -0.09610736 0.111089736 32.884457 0.1214004
-14.662583 33.84264 -0.09721479 -0.11334946 25.61904 -0.0128836725 32.663795 0.022201702
-0.087132186 0.096229695 -0.2770669 25.00078 19.5752 -0.15283759 33.793633 0.115646996
-0.062489886 -0.17130429 32.6422 -0.0980334 33.405006 18.491728 34.50486 0.055228546
0.081435956 0.062308505 33.723476 -0.12849627 -0.081436634 31.863337 0.72629493 0.1025681
0.043568827 33.00023 33.44857 0.05134469 29.225836 0.09018738 0.020876808 0.057796314
-17.772429 25.551186 -0.1123666 -0.10350907 -0.4365006 0.16858342 -20.195173 34.152626

net.4.weight f4 [4, 64]
00000000: 6802 613f 1c59 cdbd fc71 eebd 363a 813f
00000010: 26be 5e3d 7624 d8bd 49ad ac3f 38ee f73d
00000020: 4821 683d 6238 f13e b847 a03f 3cea 633d
00000030: d4a2 503d 209a c13b 9218 183f de28 a0bd
00000040: e0dc c0bf 245b 4a3f e45d b0bd 04c2 acbd
00000050: 6258 2540 52d4 503d f403 ff3e 40b2 9a3b
00000060: bdf9 dd3d e0cb 8a3c 296d 803e f71b 0540
00000070: a17a 9440 80ca 223c a629 473f e035 8bba
00000080: d5f6 38bd 8038 75bd 1a6a 533f 39b8 d5bd
00000090: 0487 223f 556e 8b40 54dd 9c3f 54f0 16bd
000000a0: afcd 9abf 5c77 1e3d 2b6d 6d3f 5d41 efbc
000000b0: 3c3c e93d 335d c83e cbac a43f 2c76 8cbc
000000c0: 646e 6cbd 9e91 023f 96d5 233f 11de c5bc
000000d0: 8621 f93f c9ee adbd 1232 a33d 79a6 c8bd
000000e0: 8a20 c6bf c526 fc3f 48df 4e3d 1e37 5ebd
000000f0: b1f2 2bbe 2569 30bf db3c d3bf caf2 be3f
00000100: a13b 603f 986d 7c3d a0d8 92bd d067 9b3f
00000110: 4f97 233e 2040 09bd 8797 bb3f 8a4c b0bd
00000120: 12e5 a63d f180 4b3f 3f69 a93f 5465 753d
00000130: a0b1 82bd 505b 853c 8422 373f 8853 c03c
00000140: 7654 f5be 1dc3 833f c8ad 293d 3fea 02bd
00000150: 8890 0f40 9552 a93c 346c 4b3f 5af7 ec3d
00000160: 5dd6 2d3c cb55 813c bea9 b7bc 8881 e93f
00000170: e673 1240 71b2 c53c ceb1 843f 6c6a 25bd
00000180: 4359 0fbd 35ec d1bd 8e6c 353f 4d6e a5bd
00000190: 2a34 6b3f 88ee 1240 7364 9f3f 7831 a03d
000001a0: c136 7ebe 3479 dc3d a637 793f 1d44 dfbc
000001b0: 402c c4bd d002 703f 995b cfbe 8016 c13c
000001c0: c87e c83c 4032 623f 4a7b 533f 79ec 8fbb
000001d0: 2c0d aebe 9831 373d 9438 05bd 60aa ec3d
000001e0: a6f8 8dbf c6f8 0940 00dc 2939 deeb a13d
000001f0: 6a3d 44bd e35b c43e b50a 24bf f826 9a3f
00000200: df7c 9a3f 2735 a73b 9067 45bd 1c9b 613f
00000210: 9013 0dbe d454 0f3d 0549 713f d749 2bbd
00000220: 18b0 91bc f88f 983f 3a0c 853f dc58 963d
00000230: 8013 40bd 6a9c a33d ab82 8c3f 1037 91bd
00000240: 8515 9c3f e158 963f 00ec 1dbd 8d9f bdbd
00000250: 906c 0040 8c71 7fbd c681 863f d02f 753c
00000260: 2e00 bebd 1447 abbd 86e0 083d 4f37 0740
00000270: ba98 1bc0 436e 1ebd f01a 6b3f 48a3 f6bc
00000280: 1f7d c5bd 9dca 32bd b120 933f 1bfd a0bd
00000290: e6be 843f 4d11 21c0 ab96 8b3f d6fb 863d
000002a0: ccc1 6fbf 8cb9 ec3d 4afc 913f 9218 ba3c
000002b0: 10c4 423d 14e2 803f dae3 80be a335 793d
000002c0: f97c 48bd d794 7f3f d6c0 823f 5109 09bd
000002d0: e93d 0a40 b8e1 8d3c b25c 2dbd 79b5 03bd
000002e0: cc74 edbe bf14 c73f 7424 183d 8af2 f03d
000002f0: b34c efbd 0314 febe 3382 5e3f ab93 8b3f
00000300: 1cba 913f 6817 83bd a240 c73d 7e6e 353f
00000310: d7d1 edbc 3c92 9abd a8a6 483f f535 103e
00000320: 0037 e43a 5303 aa3f 614f 3c3f 0099 653b
00000330: f000 403d c035 c2bc e5e7 903f 0cba 13bd
00000340: 06cf c03f 0d7b 843f 04e4 2ebd 039b 13bd
00000350: 1553 f53f b0c6 f4bc f628 8b3f a058 66bd
00000360: 8796 9ebd eed6 f13d 2c47 d0be 9dcc da3f
00000370: b324 e9bf 5211 d5bc 43f1 873f a320 b43d
00000380: bcdc f8bc 9aa4 0a3e 060f 8f3f 942d 1b3d
00000390: 38a4 793f a4c3 09c0 13e7 753f 5e24 96bd
000003a0: df1b 5abf c808 5e3d ddfe 823f 5afc cbbd
000003b0: fce4 5a3d 871d 8a3f 23a5 90be 8867 aebd
000003c0: 59e2 913c 33ad 833f c4bf 8d3f 713f 853d
000003d0: 2ebf 1440 ede8 2ebd 4817 96bc 832f 6dbd
000003e0: 09c9 a73d 5b00 a03f 66ac c9bd 705c 793d
000003f0: e1b6 f93d 048a 29bf a8f3 b93f c011 7c3f
0.87894297 -0.10026762 -0.116428345 1.009589 0.05438056 -0.10553829 1.3490382 0.121059835
0.056672364 0.4711333 1.2521887 0.055643305 0.050936535 0.0059082657 0.5941249 -0.07820295
-1.5067406 0.7904532 -0.08611658 -0.08435443 2.5835195 0.050983734 0.49807703 0.004720956
0.108386494 0.016942918 0.25083283 2.0798318 4.6399693 0.009935975 0.77797925 -0.0010620914
-0.045157272 -0.059868336 0.82583773 -0.10435528 0.6348727 4.3572183 1.2255044 -0.03685029
-1.209402 0.03868805 0.927447 -0.029205972 0.11388442 0.39133605 1.2865232 -0.017146192
-0.057722464 0.51003444 0.6399778 -0.024153741 1.9463356 -0.0849281 0.079685345 -0.09797377
-1.547868 1.9699332 0.050505906 -0.054251783 -0.16791798 -0.6891044 -1.6502947 1.4917843
0.87590986 0.061627954 -0.07170224 1.2141056 0.15975688 -0.03350842 1.4655617 -0.08608349
0.081491604 0.79493624 1.3235244 0.059911087 -0.063815355 0.016278893 0.7153704 0.02347733
-0.47916 1.0293919 0.041425496 -0.031961676 2.2431965 0.020669261 0.7946198 0.11570616
0.01061019 0.01578798 -0.022419807 1.8242655 2.2883239 0.024132939 1.0366762 -0.040384695
-0.034997236 -0.10250131 0.70868766 -0.08077679 0.9187647 2.2958088 1.245253 0.078219354
-0.24825574 0.10765305 0.9735054 -0.027254159 -0.095787525 0.9375429 -0.4049957 0.0235703
0.024474517 0.88357925 0.8261 -0.0043922034 -0.33994424 0.04472503 -0.03252466 0.11555934
-1.1091506 2.155809 0.00016199052 0.07906316 -0.04791013 0.38351354 -0.6407884 1.2043142
1.2069358 0.005102772 -0.048194468 0.88127303 -0.13776994 0.034993008 0.94252044 -0.041818466
-0.017784163 1.1918936 1.0394356 0.07341167 -0.046893597 0.07988818 1.0977377 -0.070905805
1.2194067 1.1745874 -0.038555145 -0.092589475 2.0066261 -0.062364146 1.0508354 0.014965013
-0.09277378 -0.083631665 0.033417247 2.1127508 -2.4311967 -0.038679373 0.9183798 -0.030107155
-0.096430056 -0.04365026 1.1494352 -0.07860776 1.0370758 -2.516681 1.0905355 0.06591003
-0.93655086 0.11558828 1.1405118 0.022716794 0.04755026 1.0068994 -0.25173837 0.060842168
-0.04894731 0.99836487 1.0215099 -0.03345615 2.1600287 0.017319545 -0.04232473 -0.032155488
-0.4637817 1.5553206 0.03714414 0.11765011 -0.11684551 -0.49624643 0.8691742 1.090444
1.1384921 -0.06400949 0.097291246 0.7087172 -0.029030723 -0.07547423 0.783793 0.14083083
0.0017411411 1.3282264 0.7355862 0.0035033822 0.046875894 -0.02370727 1.1320769 -0.0360661
1.5063179 1.0350052 -0.04269792 -0.036036503 1.916598 -0.029879898 1.0871875 -0.056236863
-0.077435546 0.11808573 -0.406793 1.7093693 -1.8214325 -0.026009236 1.0620502 0.087952875
-0.030378692 0.13539353 1.117646 0.037885264 0.975162 -2.152566 0.96055716 -0.07331155
-0.8519878 0.054207593 1.0234028 -0.099602416 0.053441033 1.0790261 -0.2825099 -0.08515841
0.017808126 1.0287231 1.1074147 0.06506241 2.3241687 -0.042702604 -0.018321648 -0.05790664
0.08192641 1.2500108 -0.098473355 0.06087917 0.121930845 -0.6622622 1.4527483 0.98464584

net.4.bias f4 [4]
00000000: 5cbf e241 16ec d741 dffd ac41 b2bb ab41
28.343437 26.990276 21.62396 21.466648
